Model: "model"
_________________________________________________________________
 Layer (type)                Output Shape              Param #   
=================================================================
 input_1 (InputLayer)        [(None, 978, 2)]          0         
                                                                 
 flatten (Flatten)           (None, 1956)              0         
                                                                 
 dense (Dense)               (None, 1024)              2003968   
                                                                 
 dropout (Dropout)           (None, 1024)              0         
                                                                 
 dense_1 (Dense)             (None, 512)               524800    
                                                                 
 dropout_1 (Dropout)         (None, 512)               0         
                                                                 
 dense_2 (Dense)             (None, 256)               131328    
                                                                 
 dropout_2 (Dropout)         (None, 256)               0         
                                                                 
 dense_3 (Dense)             (None, 128)               32896     
                                                                 
 dropout_3 (Dropout)         (None, 128)               0         
                                                                 
 dense_4 (Dense)             (None, 56)                7224      
                                                                 
 dense_5 (Dense)             (None, 1)                 57        
                                                                 
=================================================================
Total params: 2700273 (10.30 MB)
Trainable params: 2700273 (10.30 MB)
Non-trainable params: 0 (0.00 Byte)
_________________________________________________________________
None
Epoch 1/100

Epoch 1: val_loss improved from inf to 0.33808, saving model to sequential_weights_mda7.h5
…
